checkpoints/xtts_v2_ka/xtts_v2_ka_epoch_14.pth (torch, 74192 bytes, 8 tensors)

encoder.0.weight f4 [64, 100]
-0.08488833 0.005259633 0.051478077 -0.019873155 -0.04309795 -0.09683313 -0.03260404 -0.09326144
0.016141046 -0.09683881 0.041086067 -0.040297877 -0.049563527 0.09562415 -0.08365854 0.090696394
0.08771002 0.05768006 -0.07295525 -0.034178283 0.06955397 0.0018545866 -0.0057227733 0.0031671643
0.012184465 -0.057081915 -0.0001761675 -0.05270281 -0.05020077 0.07060331 0.005959594 -0.09048444
-0.06147771 -0.09272354 -0.07009935 -0.09290129 0.043038666 -0.038777888 0.059201013 -0.03757577
-0.0940207 0.04454279 0.02429446 0.061500132 -0.018929947 0.0029819966 -0.06809616 -0.026989091
0.06405973 0.042729627 0.030239558 -0.09007483 -0.09343711 -0.077189766 0.042081345 0.06729444
0.044944275 -0.05680535 -0.03911226 -0.0006700039 0.07775891 0.01731862 0.04496497 0.07154577
-0.08733791 -0.054468215 -0.0066937567 0.07071455 0.0013004065 0.042646408 -0.07395464 -0.034763396
-0.026877154 -0.031698085 -0.046185445 -0.06169485 -0.07141904 0.044570684 -0.0926852 -0.07407713
-0.0808898 0.014832163 -0.0030802607 -0.07078393 -0.04016422 0.09152333 -0.07328335 -0.06431627
0.030280828 -0.083672844 0.065019324 0.05776043 0.044354226 -0.08193451 -0.091115594 -0.03260498
-0.09296489 0.032174613 -0.044770073 0.002077353 0.0016706943 0.08114254 -0.09453837 -0.016701985
-0.0696288 0.02127694 0.05711334 0.06447139 -0.066964164 0.013076282 0.008416998 0.07745335
-0.022308005 0.0025135875 -0.0036616565 0.077594064 -0.023060799 0.054235768 -0.08215296 -0.070883624
0.012403118 0.073039316 -0.09635979 -0.06542038 -0.03888017 0.044437516 0.051692117 0.024566924
-0.0156873 -0.048560906 -0.022736251 -0.07911128 -0.08534397 -0.025855446 -0.06744852 -0.037095275
-0.08715494 -0.076487534 0.03716134 -0.076880075 0.082394294 -0.00607996 0.091861084 0.01607716
0.08965887 0.03313713 0.099126674 -0.04160699 -0.034650814 0.088925056 0.020848084 -0.0034881115
0.026782548 -0.0766044 0.009338426 -0.034408905 -0.08450136 0.070457615 -0.07278823 -0.077331856
-0.09720757 0.018849362 0.098250724 0.05721393 0.015274954 -0.058645833 -0.0806551 -0.098186724
0.05357627 0.0630028 0.045375146 0.08016161 0.08253346 -0.078044854 -0.0528057 -0.060164608
-0.06512215 -0.028870916 -0.012918914 0.07231366 -0.0212628 0.06112808 -0.0485734 0.06268882
0.016046166 0.012980985 -0.0042847395 0.091276996 0.016790343 -0.0010546207 -0.059316933 0.014307273
0.07799498 0.019647038 -0.046255685 -0.007349336 0.08763714 0.08669217 0.08915072 0.061535586
0.040946722 -0.06924071 -0.0062647224 -0.057249464 0.07341897 0.054309953 -0.0434052 0.08742108
-0.09417082 -0.091642134 0.011602533 0.033634245 -0.04361708 -0.029983675 -0.06466335 -0.011049437
-0.081578754 -0.059794854 -0.06023551 0.007331574 -0.002657187 0.07213124 -0.030469775 -0.042193927
0.08608319 0.06178459 -0.09942635 -0.092876635 -0.09274503 0.09916704 -0.07790309 -0.041289713
-0.030536925 0.09596304 -0.05072528 -0.07779538 -0.011545933 0.091820695 0.0535071 0.010309088
0.0432974 0.05856191 0.08997112 0.056534957 0.05493418 0.038778435 -0.0835824 0.014221824
-0.015700435 -0.02966001 -0.043911006 -0.029176688 0.07958186 0.029688526 -0.09547529 0.08479065
00000000: efd9 adbd 0059 ac3b adda 523d 07cd a2bc
00000010: 7a87 30bd 7350 c6bd d08b 05bd dbff bebd
00000020: 3a3a 843c 6d53 c6bd dd49 283d 630f 25bd
00000030: 2003 4bbd 98d6 c33d 2b55 abbd 08bf b93d
00000040: 50a1 b33d ed41 6c3d 9069 95bd 87fe 0bbd
00000050: 5072 8e3d 9a15 f33a 1a86 bbbb 3390 4f3b
00000060: 5aa1 473c bace 69bd 9ab9 38b9 e7de 57bd
00000070: 539f 4dbd 7898 903d b348 c33b e84f b9bd
00000080: 0dd0 7bbd d7e5 bdbd 3f90 8fbd 0843 bebd
00000090: 5049 303d 90d5 1ebd c37c 723d 0de9 19bd
000000a0: ed8d c0bd 8072 363d 2d05 c73c 90e7 7b3d
000000b0: fa12 9bbc 9a6d 433b 0076 8bbd 3a18 ddbc
000000c0: bf31 833d 4305 2f3d f3b8 f73c 2779 b8bd
000000d0: f55b bfbd ab15 9ebd 7d5d 2c3d abd1 893d
000000e0: 7d17 383d baac 68bd 2d34 20bd 33a3 2fba
000000f0: 1040 9f3d c7df 8d3c 302d 383d 9786 923d
00000100: 38de b2bd 101a 5fbd 4d57 dbbb cad2 903d
00000110: 6772 aa3a 00ae 2e3d 8875 97bd 1064 0ebd
00000120: 7a2d dcbc dad5 01bd f32c 3dbd bdb3 7cbd
00000130: 2544 92bd c08f 363d bdd1 bdbd c0b5 97bd
00000140: 8da9 a5bd 9a02 733c 33de 49bb 2af7 90bd
00000150: 3d83 24bd 9570 bb3d 9515 96bd 40b8 83bd
00000160: 800f f83c ab5c abbd da28 853d 3396 6c3d
00000170: c7ac 353d 48cd a7bd d09a babd cd8c 05bd
00000180: 6064 bebd 87c9 033d d360 37bd 3324 083b
00000190: 33fb da3a 0f2e a63d 559d c1bd 9ad2 88bc
000001a0: 8b99 8ebd fa4c ae3c adef 693d 9309 843d
000001b0: 8224 89bd e73d 563c 73e7 093c dd9f 9e3d
000001c0: 47bf b6bc 00bb 243b 67f8 6fbb a3e9 9e3d
000001d0: 00ea bcbc 5326 5e3d d03f a8bd 6f2b 91bd
000001e0: 7336 4b3c a395 953d 4858 c5bd 1ffb 85bd
000001f0: d040 1fbd 1d04 363d 1dbb 533d 9340 c93c
00000200: a782 80bc cde7 46bd 6041 babc 1805 a2bd
00000210: d2c8 aebd cdce d3bc 7322 8abd 37f1 17bd
00000220: 4a7e b2bd 7fa5 9cbd 7d36 183d 4d73 9dbd
00000230: 57be a83d 673a c7bb aa21 bc3d 40b4 833c
00000240: 129f b73d cdba 073d ed02 cb3d 176c 2abd
00000250: 03ee 0dbd 571e b63d 9ac9 aa3c cd98 64bb
00000260: 1367 db3c c5e2 9cbd 3300 193c 5af0 0cbd
00000270: 0d0f adbd 154c 903d ff11 95bd 2a60 9ebd
00000280: c314 c7bd fa69 9a3c ad37 c93d 2759 6a3d
00000290: cd43 7a3c 9d36 70bd 802e a5bd 1f16 c9bd
000002a0: ca72 5b3d 9d07 813d 4adb 393d c52b a43d
000002b0: 4d07 a93d fbd5 9fbd ca4a 58bd 2a6f 76bd
000002c0: c35e 85bd b382 ecbc daa9 53bc 2f19 943d
000002d0: 532f aebc 7061 7a3d e7f4 46bd ff62 803d
000002e0: 4073 833c 33ae 543c 0067 8cbb 6fef ba3d
000002f0: e78b 893c 333b 8aba 50f6 72bd 0d69 6a3c
00000300: d5bb 9f3d d3f2 a03c 9a76 3dbd b3d2 f0bb
00000310: 1a7b b33d aa8b b13d a794 b63d bd0c 7c3d
00000320: c0b7 273d 13ce 8dbd 4d48 cdbb 6a7e 6abd
00000330: af5c 963d 1d74 5e3d a7c9 31bd d309 b33d
00000340: a2dc c0bd dfae bbbd 8d18 3e3c 10c4 093d
00000350: d3a7 32bd 53a0 f5bc 386e 84bd b308 35bc
00000360: c312 a7bd 73eb 74bd 83b9 76bd b33d f03b
00000370: 3324 2ebb 8bb9 933d c09b f9bc 8ad3 2cbd
00000380: 624c b03d d711 7d3d 0ba0 cbbd 1b36 bebd
00000390: 1bf1 bdbd 1718 cb3d a88b 9fbd 671f 29bd
000003a0: 9328 fabc 4588 c43d 50c5 4fbd 2f53 9fbd
000003b0: 272b 3dbc 7d0c bc3d 432a 5b3d 73e7 283c
000003c0: 9d58 313d 9dde 6f3d c742 b83d 3391 673d
000003d0: aa02 613d 23d6 1e3d 402d abbd a702 693c
000003e0: 339e 80bc 8df9 f2bc 07dc 33bd f303 efbc
000003f0: d0fb a23d 5a35 f33c 8d88 c3bd b8a6 ad3d

encoder.0.bias f4 [64]
-0.03838792 -0.07513287 0.055182483 0.082075156 -0.024010658 0.027044917 0.019624269 0.05379218
0.08606502 -0.08852382 -0.09625061 0.06472389 0.04700316 -0.054162957 0.0069151046 0.00060120824
-0.07590333 -0.08727654 0.062722705 -0.008556676 -0.060494244 -0.021438539 0.03771472 -0.054645505
-0.024913466 -0.05853262 -0.025097072 -0.059933614 0.08903197 -0.08284706 -0.09327736 0.024723196
0.014201916 -0.04470718 -0.067307405 0.001452899 -0.005848706 -0.07451866 0.09321671 0.054927267
-0.040169097 -0.06474066 0.004918778 -0.05804341 0.015557063 0.03429216 -0.041662026 0.024582077
-0.05075884 0.0055791377 0.04112215 -0.0044345977 0.09565516 -0.011505211 0.032349527 0.0016554594
-0.024091994 0.026259184 0.099179804 -0.0154028535 -0.08495643 0.07422129 -0.07866211 -0.069734946
00000000: a73c 1dbd 43df 99bd 0707 623d 0517 a83d
00000010: 00b2 c4bc 4d8d dd3c 13c3 a03c 3055 5c3d
00000020: db42 b03d fa4b b5bd 0a1f c5bd f58d 843d
00000030: 6386 403d fad9 5dbd 1a98 e23b 679a 1d3a
00000040: 3573 9bbd 0bbe b2bd c374 803d 4d31 0cbc
00000050: d0c8 77bd e09f afbc c07a 1a3d f7d3 5fbd
00000060: 5317 ccbc e7bf 6fbd 6098 cdbc f37c 75bd
00000070: 6556 b63d b8ab a9bd 3308 bfbd 4d88 ca3c
00000080: 27af 683c e01e 37bd 77d8 89bd 336f be3a
00000090: 80a6 bfbb 3d9d 98bd 67e8 be3d 6afb 603d
000000a0: 5a88 24bd c096 84bd b32d a13b edbe 6dbd
000000b0: 0de3 7e3c f075 0c3d cda5 2abd 5a60 c93c
000000c0: 80e8 4fbd 33d1 b63b b36f 283d 1a50 91bb
000000d0: dae6 c33d 5a80 3cbc f080 043d 00fc d83a
000000e0: 935c c5bc 801d d73c c81e cb3d 405c 7cbc
000000f0: a3fd adbd 5501 983d 9a19 a1bd 32d1 8ebd

encoder.2.weight f4 [32, 64]
0.0019871742 0.021524847 0.066857114 -0.086270824 -0.06523518 0.05273892 -0.028046548 0.005281806
0.017696857 0.059159398 0.07054597 0.112577036 -0.07835397 0.021651745 0.053502858 0.03144008
0.08424716 0.090967804 0.105103895 0.12251565 -0.09125236 -0.013027608 0.021979198 -0.017368421
-0.042726547 -0.06565273 0.058207154 -0.11400068 0.05195895 0.09628007 0.0050456673 -0.07185958
-0.097965494 -0.09831822 -0.03965716 -0.064150184 -0.030864462 -0.060799092 -0.00028590858 0.108979896
0.11887616 -0.04105854 0.034364387 -0.04471743 0.067632645 -0.04308738 -0.09449457 0.118805945
0.040901557 0.050085932 0.04671064 0.052427724 -0.09685546 0.03659898 0.0757779 0.033057302
-0.018094778 0.056341335 -0.01582937 0.106749326 0.11896099 0.01149106 0.052785546 -0.021154523
0.003526643 -0.05236037 0.0014174879 0.018348396 -0.052410215 -0.05671546 -0.0014994144 0.086192355
-0.021502659 0.037238985 -0.06103103 0.0059241354 -0.0778372 -0.124322236 0.009170502 -0.06442794
0.07487802 -0.0035021603 -0.073954836 -0.025147215 -0.041015908 0.1076311 -0.060083658 0.091640756
-0.10294643 -0.0065540224 0.08010924 0.03693399 0.10723023 0.005548209 -0.012816921 -0.028888121
0.0049075335 -0.027272552 -0.09079623 -0.0819985 -0.050033018 -0.055140108 -0.032238483 0.106794655
0.09752624 -0.050148264 -0.124552056 -0.10657422 -0.090105 0.012808576 -0.04793954 -0.0009033978
0.07063487 0.094047636 0.0081317425 0.043336406 0.054091036 -0.124651134 0.00086316466 0.032130763
0.071138665 -0.04149604 0.108122244 0.00552544 0.0030957311 -0.051320955 -0.08304143 0.085340425
-0.017001137 -0.026766494 0.0077676326 0.12231791 0.029670522 0.11624339 0.073538095 0.0897723
-0.09848006 0.017044723 -0.020849347 0.014909834 -0.03437075 0.030612692 0.11366178 -0.04237616
-0.10325459 0.11009818 -0.03136319 0.085027516 0.079397544 0.065167114 -0.0769158 -0.09316154
0.010714963 -0.015102491 -0.059505433 0.11264762 0.068773106 -0.0044944286 0.086882114 -0.0052594244
-0.039757818 -0.03991893 0.026813343 0.10122867 -0.04730293 0.05631651 -0.106625125 0.020604521
-0.09230912 -0.028599784 -0.08688524 -0.003817439 0.016770989 0.076475486 -0.08007121 0.09416455
-0.08996804 0.07761957 0.08592866 0.008039936 -0.039781183 0.12403171 -0.05689083 0.048701853
0.08844794 -0.11119971 -0.031856418 -0.11278035 -0.0047056973 -0.08160357 -0.056675866 0.019706711
0.083722055 -0.02180463 0.06422204 0.12258871 0.002232343 0.06429908 0.031341136 -0.04332654
-0.108057484 -0.11313015 -0.05908504 -0.039038718 0.015827969 -0.022596821 -0.073128 -0.006581068
-0.011753455 -0.115254596 0.01682274 0.030550376 0.03848651 -0.0915277 -0.08326 0.03820625
-0.105294496 -0.056993768 -0.009828374 0.024923965 -0.08603051 -0.09001292 0.015733093 0.04919949
0.013763875 -0.11845802 0.06681973 -0.022677168 -0.055031285 0.09090631 0.11491959 -0.014921412
0.06681205 -0.02023375 -0.026971474 -0.05497861 -0.1067002 0.0469781 0.039883375 -0.043028608
-0.039624467 0.10166517 -0.1001679 0.0021799207 -0.024857521 -0.052297264 -0.048160195 0.08319074
-0.057270512 -0.019020677 0.037764043 0.11044414 -0.09228651 -0.10001151 -0.074783936 -0.063007
00000000: 403b 023b e054 b03c 62ec 883d c2ae b0bd
00000010: 069a 85bd c404 583d e0c1 e5bc 0013 ad3b
00000020: 00f9 903c 2051 723d 687a 903d ca8e e63d
00000030: 0c78 a0bd 005f b13c d025 5b3d 50c7 003d
00000040: c689 ac3d 544d ba3d b640 d73d 7ce9 fa3d
00000050: 84e2 babd c071 55bc b80d b43c 3848 8ebc
00000060: 0802 2fbd f074 86bd a06a 6e3d 3079 e9bd
00000070: e8d2 543d 7c2e c53d 2056 a53b 1e2b 93bd
00000080: 22a2 c8bd 105b c9bd 8c6f 22bd 2c61 83bd
00000090: 78d7 fcbc 7808 79bd 00e6 95b9 da30 df3d
000000a0: 5875 f33d 002d 28bd acc1 0c3d a029 37bd
000000b0: fc82 8a3d 647c 30bd 5e86 c1bd 8850 f33d
000000c0: 6488 273d e826 4d3d a853 3f3d 74be 563d
000000d0: 285c c6bd d0e8 153d 7231 9b3d 1867 073d
000000e0: 803b 94bc 2cc6 663d 98ac 81bc 649f da3d
000000f0: d2a1 f33d 0045 3c3c a835 583d 404c adbc
00000100: 401f 673b d477 56bd 00cb b93a 604f 963c
00000110: 18ac 56bd 784e 68bd 0088 c4ba 9e85 b03d
00000120: 5826 b0bc e887 183d acfb 79bd 401f c23b
00000130: 1c69 9fbd a89c febd e03f 163c ccf2 83bd
00000140: a659 993d 8084 65bb a275 97bd 8801 cebc
00000150: 4c00 28bd b26d dc3d 481a 76bd 26ae bb3d
00000160: 94d5 d2bd 20c3 d6bb 5010 a43d 1848 173d
00000170: 869b db3d c0cd b53b 10fe 51bc c8a6 ecbc
00000180: 60cf a03b b06a dfbc 60f3 b9bd d4ee a7bd
00000190: 6cef 4cbd 98da 61bd 800c 04bd 28b7 da3d
000001a0: d6bb c73d 4468 4dbd 2615 ffbd 9643 dabd
000001b0: f888 b8bd 10db 513c 405c 44bd 00d2 6cba
000001c0: 04a9 903d 0c9c c03d 003b 053c 8481 313d
000001d0: 908e 5d3d 1849 ffbd 0046 623a 8c9b 033d
000001e0: 26b1 913d c0f7 29bd 326f dd3d c00e b53b
000001f0: c0e1 4a3b ec35 52bd a011 aabd f6c6 ae3d
00000200: f845 8bbc 6845 dbbc a087 fe3b d081 fa3d
00000210: 980f f33c 0411 ee3d 249b 963d 8ada b73d
00000220: eaaf c9bd 60a1 8b3c 40cc aabc 6048 743c
00000230: 58c8 0cbd 78c7 fa3c 82c7 e83d a092 2dbd
00000240: 2477 d3bd 287b e13d b076 00bd e822 ae3d
00000250: 2e9b a23d 5676 853d 0886 9dbd 7acb bebd
00000260: d08d 2f3c 7070 77bc f8bb 73bd ccb3 e63d
00000270: ead8 8c3d 0046 93bb 40ef b13d 4057 acbb
00000280: 18d9 22bd 0882 23bd a8a7 db3c fa50 cf3d
00000290: b8c0 41bd 24ac 663d 465e dabd d0ca a83c
000002a0: 900c bdbd 184a eabc e4f0 b1bd 002e 7abb
000002b0: 5063 893c 2e9f 9c3d 60fc a3bd 58d9 c03d
000002c0: 2a41 b8bd 02f7 9e3d 5efb af3d f0b9 033c
000002d0: 98f1 22bd 5604 fe3d 5c06 69bd 987b 473d
000002e0: 3224 b53d acbc e3bd e07b 02bd 62f9 e6bd
000002f0: 4032 9abb c61f a7bd f424 68bd f86f a13c
00000300: 7876 ab3d a09f b2bc d886 833d ca0f fb3d
00000310: 804c 123b 3caf 833d 905f 003d 2c77 31bd
00000320: 3e4d ddbd c8b0 e7bd 2803 72bd 10e7 1fbd
00000330: a8a9 813c f81c b9bc 22c4 95bd 00a6 d7bb
00000340: 9091 40bc 9a0a ecbd d8cf 893c c844 fa3c
00000350: 08a4 1d3d e072 bbbd 3884 aabd 287e 1c3d
00000360: a4a4 d7bd 4c72 69bd 3007 21bc 582d cc3c
00000370: c430 b0bd b258 b8bd b0e2 803c 6885 493d
00000380: e081 613c 1e9a f2bd c8d8 883d 78c5 b9bc
00000390: 7c68 61bd 162d ba3d f65a eb3d f078 74bc
000003a0: c2d4 883d 40c1 a5bc 48f3 dcbc 4031 61bd
000003b0: a285 dabd 1c6c 403d c05c 233d c43e 30bd
000003c0: 444d 22bd d435 d03d d424 cdbd 00dd 0e3b
000003d0: 00a2 cbbc a835 56bd a043 45bd e85f aa3d
000003e0: 7c94 6abd 40d1 9bbc 78ae 1a3d 8a30 e23d
000003f0: b600 bdbd d6d2 ccbd 5228 99bd d009 81bd

encoder.2.bias f4 [32]
-0.062189937 -0.064252615 -0.08390486 0.00035832822 -0.09546283 0.118532255 -0.075323746 0.097991005
0.09882094 0.073356315 -0.100023136 0.026594564 -0.117912814 0.031170547 -0.112327695 -0.02730982
0.05344218 0.10935898 -0.049539834 -0.09736508 -0.031389385 0.08855103 0.02617675 0.090646505
0.105502486 -0.09642039 0.08506541 -0.08985984 -0.030727759 0.05126442 -0.00457868 -0.08549355
00000000: e0ba 7ebd e096 83bd 50d6 abbd 00de bb39
00000010: 0482 c3bd 0ac1 f23d 5643 9abd 82af c83d
00000020: a262 ca3d d63b 963d eed8 ccbd d8dc d93c
00000030: 467c f1bd 6059 ff3c 100c e6bd d8b8 dfbc
00000040: 30e6 5a3d 9af7 df3d 48ea 4abd 5867 c7bd
00000050: 2892 00bd 3e5a b53d a070 d63c e0a4 b93d
00000060: b011 d83d 0e78 c5bd c636 ae3d 7008 b8bd
00000070: c8b8 fbbc a4fa 513d c008 96bb 3e17 afbd

decoder.0.weight f4 [64, 32]
0.1604821 -0.08810101 0.15944064 -0.15542817 0.15779822 0.16518542 -0.0577863 0.031785022
-0.027035791 0.10911073 0.10738625 -0.11699445 -0.038884472 0.13647003 0.09880707 0.16945241
0.027686939 0.022518344 -0.059794806 0.018821917 -0.086726345 -0.1538687 0.089316525 -0.11575461
0.08567519 -0.15655752 0.0060344804 -0.058171038 0.06774657 -0.005049024 -0.14484519 0.10034625
0.033155493 0.12949307 -0.08167452 0.012304267 0.117097385 -0.027414797 0.12695971 0.10635255
0.055032257 -0.08340952 -0.100082874 -0.074275665 -0.08410427 0.0703986 0.044121787 0.112520345
0.06141959 0.15594816 0.06359026 -0.17649698 0.052310813 0.093396954 0.03717702 -0.1759957
0.047044247 0.0062520425 -0.0633605 0.09189431 0.029553348 0.04017743 0.10504006 0.001165276
-0.11329928 -0.00843057 0.13678789 0.1159614 0.08967094 0.16610996 -0.005548401 0.17286201
0.068034895 -0.14685988 0.07901025 -0.12806755 -0.041659527 0.010027578 -0.009448691 -0.11272225
-0.01947081 -0.07130834 -0.17133823 -0.16072361 -0.11175192 0.03405305 0.019396864 0.031301707
-0.045719933 0.036878746 0.1222204 0.011145439 0.1632907 -0.123117074 -0.01489398 0.08704715
-0.14500493 -0.010711727 -0.004431235 -0.04695285 -0.10242881 0.066985525 -0.13926 -0.029992623
0.067988515 0.1463888 -0.09684804 -0.11127465 0.070878945 0.047942504 -0.15055224 0.17223197
-0.06919486 0.10238694 -0.17439023 0.170813 0.0723913 0.07051077 -0.1054394 0.04873122
-0.004339819 -0.15741695 -0.0032724289 0.041162338 -0.14423579 -0.051256634 -0.025194522 0.09527891
0.039125677 -0.030834464 0.11085818 -0.0894762 0.17525978 -0.061879117 0.00049754354 -0.012538308
-0.0316432 0.026379818 -0.021638192 0.1079919 0.033721272 -0.14158267 -0.05696475 0.016959513
-0.17178595 -0.08807151 0.0008701428 0.13209842 0.12883003 0.10470811 0.12784103 -0.11895128
0.17336704 -0.017057905 0.12892698 0.08723087 0.12795404 -0.06919707 0.1607194 -0.105620086
-0.061535787 0.1496646 -0.10601194 -0.14548656 -0.0052770595 -0.14636418 0.089967355 0.07269269
-0.065588586 0.071978725 -0.008389836 -0.10541818 -0.069321744 0.0039235135 -0.104162164 -0.16805822
-0.12522069 0.04513194 -0.071135305 0.024446541 0.082030244 0.047605496 0.009187317 -0.013388304
0.029769015 0.14513764 -0.036118057 0.052883167 -0.11761792 0.06364079 0.044981223 -0.092568554
0.049459327 0.015422712 -0.06337476 -0.027655413 0.07847775 0.06436757 -0.12049822 -0.13239774
-0.0655449 -0.048079375 0.14005722 -0.033096593 -0.14325227 0.042521365 0.11684364 -0.14322928
-0.036053553 0.007991885 0.13719979 -0.11896175 0.07171906 0.06509835 0.07691914 -0.15550138
-0.09202589 -0.14489287 -0.13777453 0.0030677216 0.04012696 0.08718895 -0.005173526 -0.013132557
-0.10734509 0.07597265 0.12828556 0.12147143 -0.16415264 0.1716988 -0.03857155 0.12577549
0.08635223 0.14901242 -0.1145585 0.086995095 0.03119619 -0.092565544 0.034477957 -0.12324716
0.09703707 -0.1591378 -0.11526151 -0.17117812 -0.09386187 0.03333679 -0.10357264 0.055818062
0.04573049 0.0885744 -0.05010272 0.11766258 0.0375984 0.089173056 0.01687857 0.05917921
00000000: 6b55 243e 4d6e b4bd 6844 233e 9028 1fbe
00000010: db95 213e 5e26 293e 54b1 6cbd 0331 023d
00000020: 2a7a ddbc 7275 df3d 52ed db3d c99a efbd
00000030: 5345 1fbd cdbe 0b3e 5c5b ca3d ef84 2d3e
00000040: b8cf e23c 6478 b83c 66eb 74bd 6c30 9a3c
00000050: 959d b1bd c28f 1dbe 95eb b63d c110 edbd
00000060: 7976 af3d 9d50 20be e4bc c53b c144 6ebd
00000070: b7be 8a3d 4872 a5bb 4c52 14be 5682 cd3d
00000080: 0ece 073d d599 043e f944 a7bd d697 493c
00000090: c1d0 ef3d ff94 e0bc ba01 023e 5ecf d93d
000000a0: 8169 613d 9cd2 aabd 40f8 ccbd d71d 98bd
000000b0: dc3e acbd 242d 903d 0cb9 343d 1171 e63d
000000c0: 1c93 7b3d e0b0 1f3e 9c3b 823d a0bb 34be
000000d0: dd43 563d e746 bf3d ee46 183d 3738 34be
000000e0: 78b1 403d efdd cc3b 26c3 81bd 1633 bc3d
000000f0: dd19 f23c 1791 243d 3e1f d73d 2dbc 983a
00000100: 7409 e8bd 6020 0abc 2012 0c3e 2c7d ed3d
00000110: 66a5 b73d bb18 2a3e 5ccf b5bb bd02 313e
00000120: e155 8b3d 7062 16be 20d0 a13d 2424 03be
00000130: 2ea3 2abd b64a 243c afce 1abc ecda e6bd
00000140: 4081 9fbc 1b0a 92bd 4a73 2fbe bb94 24be
00000150: 31de e4bd 367b 0b3d 2ce6 9e3c 3836 003d
00000160: d344 3bbd 2b0e 173d b04e fa3d 5c9b 363c
00000170: ad35 273e ce24 fcbd e105 74bc c745 b23d
00000180: 2c7c 14be 3d80 2fbc e533 91bb a251 40bd
00000190: 32c6 d1bd b52f 893d 2c9a 0ebe 17b3 f5bc
000001a0: 903d 8b3d f2e6 153e 4458 c6bd f7e3 e3bd
000001b0: fb28 913d 5c5f 443d 5e2a 1abe 945d 303e
000001c0: 09b6 8dbd 3eb0 d13d 5a93 32be 9ae9 2e3e
000001d0: e441 943d f367 903d 9df0 d7bd 639a 473d
000001e0: 0a35 8ebb e931 21be 3f76 56bb d799 283d
000001f0: 8cb2 13be 7af2 51bd be64 cebc 9721 c33d
00000200: 3f42 203d 8f98 fcbc 9d09 e33d 4c3f b7bd
00000210: 4d77 333e f574 7dbd 956d 023a 7a6d 4dbc
00000220: 4d9c 01bd 7d1a d83c 9442 b1bc db2a dd3d
00000230: 511f 0a3d 0cfb 10be df53 69bd adee 8a3c
00000240: a8e8 2fbe d65e b4bd 4b1a 643a cf44 073e
00000250: 05ec 033e 3571 d63d c2e8 023e bb9c f3bd
00000260: 2187 313e 05bd 8bbc 6f05 043e 19a6 b23d
00000270: 6206 033e 32b7 8dbd a093 243e 584f d8bd
00000280: f30c 7cbd ad41 193e ca1c d9bd 6efa 14be
00000290: 2feb acbb 7ee0 15be ce40 b83d e8df 943d
000002a0: 4f53 86bd 9569 933d 8675 09bc 7de5 d7bd
000002b0: 8ff8 8dbd d190 803b f952 d5bd 7417 2cbe
000002c0: da39 00be 45dc 383d 63af 91bd 1d44 c83c
000002d0: 79ff a73d fbfd 423d 6786 163c 9e5a 5bbc
000002e0: 26de f33c f69e 143e 87f0 13bd 059c 583d
000002f0: aae1 f0bd 1a56 823d 3b3e 383d 9594 bdbd
00000300: dd95 4a3d 8baf 7c3c a0ca 81bd 9b8d e2bc
00000310: f1b8 a03d 25d3 833d c5c7 f6bd 4693 07be
00000320: 683c 86bd e1ee 44bd 296b 0f3e 4b90 07bd
00000330: b9b0 12be e22a 2e3d b84b ef3d b2aa 12be
00000340: e4ac 13bd 65f0 023c 1a7e 0c3e 38a2 f3bd
00000350: 71e1 923d 4952 853d c887 9d3d c13b 1fbe
00000360: 1278 bcbd cc5e 14be c414 0dbe d40b 493b
00000370: 2b5c 243d 1f90 b23d ae86 a9bb f029 57bc
00000380: bed7 dbbd 8c97 9b3d 4a5d 033e 03c6 f83d
00000390: a117 28be cfd1 2f3e 34fd 1dbd 4acb 003e
000003a0: 70d9 b03d b696 183e a69d eabd 7c2a b23d
000003b0: 278f ff3c 0193 bdbd c238 0d3d 0269 fcbd
000003c0: 5fbb c63d 05f5 22be 3a0e ecbd 5149 2fbe
000003d0: a73a c0bd 288c 083d e41d d4bd 7ba1 643d
000003e0: e54f 3b3d 7f66 b53d 8238 4dbd 14f9 f03d
000003f0: c800 1a3d 5da0 b63d ed44 8a3c e665 723d

decoder.0.bias f4 [64]
-0.07361434 0.005833566 0.0043701436 0.028046282 0.09103287 0.014954628 -0.09464817 -0.14299652
-0.089695975 -0.018652657 -0.086544886 -0.012822483 0.14217179 -0.15479116 0.03140821 -0.15330142
-0.11868869 -0.064172834 -0.07391033 0.06525639 -0.0016631568 0.09063178 -0.04651914 -0.057201702
-0.10368885 -0.011449423 0.13698721 0.102689154 0.048851337 -0.018890386 0.06682827 -0.019807437
0.16199027 0.088777885 -0.03785453 -0.10413721 0.1313756 -0.17201911 0.11063185 -0.14278543
-0.011401987 -0.1535312 0.13028298 0.16656284 0.045359995 0.107307985 -0.102803625 -0.10440729
-0.016384356 0.108122066 0.11389682 0.0034566317 -0.084803715 -0.056775533 0.057210848 -0.035063565
0.065241866 -0.14584939 0.026622541 -0.039031565 -0.075615995 -0.13809627 0.019884715 0.13303185
00000000: 1dc3 96bd 8027 bf3b 6c33 8f3b 51c1 e53c
00000010: 716f ba3d 4204 753c e6d6 c1bd ae6d 12be
00000020: 86b2 b7bd 75cd 98bc 723e b1bd 6415 52bc
00000030: 7b95 113e 9381 1ebe e5a5 003d 0cfb 1cbe
00000040: 0e13 f3bd 0c6d 83bd 4d5e 97bd 24a5 853d
00000050: 48fe d9ba 289d b93d db8a 3ebd 554c 6abd
00000060: d25a d4bd 5c96 3bbc 6046 0c3e b14e d23d
00000070: 5718 483d 03c0 9abc 43dd 883d 3543 a2bc
00000080: c7e0 253e 2ed1 b53d 5a0d 1bbd e445 d5bd
00000090: 5387 063e c725 30be f492 e23d 5836 12be
000000a0: 66cf 3abc 4837 1dbe e768 053e 738f 2a3e
000000b0: 67cb 393d 4ac4 db3d b58a d2bd 7dd3 d5bd
000000c0: 7c38 86bc 1a6f dd3d bc42 e93d a888 623b
000000d0: 92ad adbd 768d 68bd ec55 6a3d d09e 0fbd
000000e0: 879d 853d 8b59 15be 8417 da3c 90df 1fbd
000000f0: 8fdc 9abd 1c69 0dbe 45e5 a23c 8039 083e

decoder.2.weight f4 [100, 64]
0.021479279 -0.048740193 -0.09113225 0.09987609 -0.108670264 -0.00035749376 -0.07168393 0.021050826
0.041466758 -0.023959309 -0.042952135 0.019825116 0.06263837 0.011195421 -0.020882964 0.05940889
-0.010759115 -0.06767666 0.10696465 -0.108124614 -0.09987211 -0.059818834 0.07919769 0.02539821
-0.021565706 0.0171469 -0.11661267 0.027918875 -0.07100077 -0.080377206 -0.0332603 -0.06901936
-0.057412773 -0.06736015 0.09036736 -0.007833719 -0.07069029 0.003488496 -0.1086362 -0.025926605
0.07488912 -0.08332269 -0.04373102 0.013824999 -0.12486152 0.048986107 -0.11304386 -0.09596719
-0.09338175 0.12317707 0.10625057 0.09133232 -0.0063628554 -0.09209868 0.033836067 0.019626796
0.005409777 -0.12334424 -0.01861924 0.026625887 0.062459126 -0.12015547 0.054714918 0.04934317
0.057674006 0.10018912 -0.056460217 0.014096066 -0.012313917 0.12233384 -0.09413692 -0.097642586
0.084921464 -0.06717199 -0.09439257 -0.012208313 -0.056011036 -0.09534219 -0.09224546 -0.05200608
0.039838508 0.026595294 -0.01785253 -0.116869256 0.046855435 -0.036173746 0.10013196 0.017795488
0.116017014 -0.12099908 0.104013845 -0.016205296 0.093738586 0.09494665 -0.11493617 0.059231147
0.08992468 0.08596654 -0.05368057 0.011489153 0.0537384 -0.04310271 -0.047944754 -0.119405225
-0.03489405 0.03703423 -0.075087875 -0.037961364 0.024589136 0.035955742 -0.0018204749 0.08210388
-0.010279328 -0.027702078 -0.03142628 0.11019939 -0.05305949 0.082970425 0.07929316 -0.084625095
0.033717528 0.045566082 0.005108103 0.03284408 -0.0865287 -0.026592508 0.11983082 0.109537944
-0.04267691 -0.07547876 -0.017127559 0.08466199 0.11830282 -0.12226443 -0.082849845 0.0752978
-0.078554794 0.06641503 -0.09330107 -0.07996741 0.03560169 -0.07338922 -0.047728047 -0.11507177
-0.054323584 -0.061497048 0.07242459 0.1075889 0.08343166 0.06391254 0.11452049 -0.013566032
-0.058631316 -0.034349263 -0.023399025 -0.09269595 0.09715463 0.09556942 -0.10561772 -0.09916201
-0.056519598 0.057660773 -0.0032727271 0.10090348 -0.08361408 0.049775332 -0.08112593 -0.005842045
0.0035195649 0.117830485 0.051160023 -0.114726305 -0.009144902 -0.017215967 0.07430047 -0.009584948
-0.0512823 -0.011453807 -0.058717996 -0.063275024 0.08141117 -0.10588513 0.09074192 -0.057197154
-0.045516193 0.0151283145 0.110401526 0.077270046 0.094233975 0.081579834 -0.006086603 0.07093237
0.079828784 -0.026471674 -0.07981917 0.06251456 -0.076550394 -0.089695424 0.0881622 0.026695848
0.07640378 0.10558009 0.04854372 0.030169055 -0.0617636 -0.00112544 0.051872388 -0.035076126
0.006351486 0.009012073 -0.018167257 -0.022625998 0.086896524 -0.06807503 0.085341066 0.002982363
-0.07390633 -0.052639604 0.03947535 -0.09247905 0.09566349 -0.066918716 -0.05364147 0.08674389
-0.123608485 -0.063297436 -0.09382816 0.10091427 0.022026822 -0.05537525 -0.06568907 0.036021292
-0.01948087 -0.02446638 0.12233053 0.05634956 0.042974383 0.09415111 -0.11808255 0.015887171
-0.10822864 0.05942841 -0.020362884 -0.08712274 0.09953952 0.047963917 -0.03766784 0.071720526
0.0115875155 -0.108728155 -0.055222765 0.038110435 -0.11150734 0.085607156 -0.11467525 0.04317996
00000000: 50f5 af3c cca3 47bd 8ca3 babd d68b cc3d
00000010: 848e debd 006e bbb9 06cf 92bd c872 ac3c
00000020: 0cd9 293d 5046 c4bc 94ee 2fbd 4868 a23c
00000030: 8c48 803d 006d 373c c012 abbc bc56 733d
00000040: 0047 30bc 109a 8abd 4810 db3d 7070 ddbd
00000050: c089 ccbd 9804 75bd 6632 a23d e80f d03c
00000060: 90aa b0bc a877 8c3c a0d2 eebd 20b6 e43c
00000070: da68 91bd ce9c a4bd f43b 08bd 065a 8dbd
00000080: a829 6bbd 1ef4 89bd 8612 b93d 0059 00bc
00000090: 12c6 90bd 409f 643b a87c debd 0864 d4bc
000000a0: 785f 993d 16a5 aabd 4c1f 33bd 4082 623c
000000b0: 66b7 ffbd a8a5 483d 8a83 e7bd 728a c4bd
000000c0: ee3e bfbd 4244 fc3d e699 d93d 700c bb3d
000000d0: 807f d0bb 3c9e bcbd b097 0a3d 60c8 a03c
000000e0: 8044 b13b e89b fcbd 6087 98bc 881e da3c
000000f0: 24d5 7f3d 1214 f6bd c01c 603d 101c 4a3d
00000100: 943b 6c3d f42f cd3d d442 67bd 30f3 663c
00000110: 50c0 49bc 2a8a fa3d dcca c0bd d6f8 c7bd
00000120: 4eeb ad3d 7891 89bd e450 c1bd 6005 48bc
00000130: d46b 65bd c442 c3bd 30eb bcbd 5404 55bd
00000140: b42d 233d 60de d93c 783f 92bc 2659 efbd
00000150: 7ceb 3f3d ec2a 14bd fc11 cd3d d8c7 913c
00000160: 549a ed3d 5ece f7bd 3605 d53d f8c0 84bc
00000170: 04fa bf3d 6473 c23d a863 ebbd 5c9c 723d
00000180: 6e2a b83d 3a0f b03d 28e0 5bbd 003d 3c3c
00000190: cc1c 5c3d 788c 30bd b861 44bd ba8a f4bd
000001a0: 10ed 0ebd 34b1 173d acc7 99bd 607d 1bbd
000001b0: 286f c93c 5446 133d 009d eeba 1426 a83d
000001c0: a06a 28bc 78ef e2bc d8b8 00bd 38b0 e13d
000001d0: e854 59bd 66ec a93d 7464 a23d ec4f adbd
000001e0: 641b 0a3d 80a3 3a3d e061 a73b 8487 063d
000001f0: f635 b1bd 88d8 d9bc dc69 f53d 6e55 e03d
00000200: fccd 2ebd 9c94 9abd 184f 8cbc 4463 ad3d
00000210: c048 f23d c665 fabd 2ead a9bd bc35 9a3d
00000220: 56e1 a0bd 9a04 883d a214 bfbd f4c5 a3bd
00000230: 14d3 113d 164d 96bd 7c7e 43bd c0aa ebbd
00000240: 6882 5ebd 54e4 7bbd 5853 943d 9257 dc3d
00000250: 38de aa3d 94e4 823d b889 ea3d 1044 5ebc
00000260: 6427 70bd d0b1 0cbd 50af bfbc 60d7 bdbd
00000270: 02f9 c63d e6b9 c33d 1a4e d8bd 7415 cbbd
00000280: 1881 67bd b42d 6c3d 407b 56bb 7ca6 ce3d
00000290: dc3d abbd 38e1 4b3d 5a25 a6bd a06e bfbb
000002a0: 80a8 663b 1c51 f13d 2c8d 513d a0f5 eabd
000002b0: 80d4 15bc 8008 8dbc d82a 983d 300a 1dbc
000002c0: 640d 52bd c0a8 3bbc 4882 70bd 5696 81bd
000002d0: e6ba a63d 4eda d8bd e6d6 b93d 9047 6abd
000002e0: 306f 3abd c0dc 773c 321a e23d c23f 9e3d
000002f0: befd c03d 5413 a73d 2072 c7bb fe44 913d
00000300: 467d a33d 20db d8bc 3c78 a3bd a207 803d
00000310: 74c6 9cbd 3cb2 b7bd 628e b43d 40b1 da3c
00000320: 9679 9c3d 603a d83d c8d5 463d 1825 f73c
00000330: d4fb 7cbd 8083 93ba 2478 543d fcab 0fbd
00000340: 2020 d03b 60a7 133c 80d3 94bc 285a b9bc
00000350: cef6 b13d ec6a 8bbd 4cc7 ae3d c073 433b
00000360: 345c 97bd a09c 57bd e8b0 213d a865 bdbd
00000370: 38eb c33d ae0c 89bd 28b7 5bbd c8a6 b13d
00000380: 7226 fdbd 16a2 81bd fa28 c0bd 24ac ce3d
00000390: 9871 b43c 28d1 62bd fe87 86bd 108b 133d
000003a0: 5896 9fbc b86d c8bc 6e88 fa3d ccce 663d
000003b0: e805 303d 4cd2 c03d 44d5 f1bd d025 823c
000003c0: faa6 ddbd 346b 733d 10d0 a6bc 686d b2bd
000003d0: 60db cb3d d075 443d 9849 1abd 36e2 923d
000003e0: 90d9 3d3c deac debd 4431 62bd b019 1c3d
000003f0: f65d e4bd ce52 af3d dcda eabd 78dd 303d

decoder.2.bias f4 [100]
-0.08761507 0.02778387 -0.11790298 0.12003438 -0.0037626475 0.06031558 -0.06464729 -0.09679791
-0.052848548 -0.0030257106 -0.1048059 -0.096205354 0.09107703 -0.017868102 -0.03430593 0.094787076
-0.10077359 0.04959856 0.0453635 0.088585496 0.009514615 -0.0419406 -0.044518158 0.019925505
0.07077967 0.10720551 -0.031479016 -0.05467443 -0.0130871385 0.116376325 -0.030718863 0.084350705
-0.07747793 -0.103572056 -0.080968484 0.02245228 0.0042798966 -0.04062116 0.06848107 -0.011629567
0.0059716403 0.12271336 0.12331569 0.11664404 0.06605667 0.04823801 -0.024004266 -0.033562183
-0.089254975 -0.036798105 0.10775049 -0.025482714 0.007208422 -0.0005452931 -0.009884566 0.033266053
-0.07945685 -0.07726559 -0.033296064 0.05493784 -0.0729543 -0.089190155 -0.026653975 -0.083957404
0.08278608 -0.05977553 0.019437328 0.03455028 -0.042879745 0.039716095 -0.09627284 0.07876077
0.11270465 -0.090931356 -0.003220871 -0.013147622 0.07097055 -0.06287077 -0.016346052 0.10894376
0.08847432 -0.047858626 0.093042955 0.12278445 0.017963469 -0.07572216 0.08599287 0.0057692677
0.05179259 0.08539513 -0.029292688 -0.0852731 -0.043078065 -0.12111291 -0.11919376 -0.0469331
-0.059122205 0.023157418 0.05709289 0.063057765
00000000: 886f b3bd 009b e33c 1e77 f1bd 96d4 f53d
00000010: c096 76bb 780d 773d cc65 84bd fc3d c6bd
00000020: b877 58bd 004b 46bb 7aa4 d6bd 5007 c5bd
00000030: 9886 ba3d 2060 92bc 6084 0cbd ba1f c23d
00000040: 6262 cebd dc27 4b3d 14cf 393d 506c b53d
00000050: 30e3 1b3c e8c9 2bbd ac58 36bd d03a a33c
00000060: eef4 903d 908e db3d 24f0 00bd 4cf2 5fbd
00000070: 706b 56bc b656 ee3d 20a6 fbbc 10c0 ac3d
00000080: c0ac 9ebd 961d d4bd ced2 a5bd d8ed b73c
00000090: 603e 8c3b 6062 26bd ce3f 8c3d f089 3ebc
000000a0: c0ad c33b 2451 fb3d f08c fc3d 12e3 ee3d
000000b0: b848 873d 3895 453d 98a4 c4bc 8078 09bd
000000c0: 50cb b6bd 9cb9 16bd 4aac dc3d 20c1 d0bc
000000d0: a034 ec3b 00f2 0eba e0f2 21bc fc41 083d
000000e0: 46ba a2bd 6c3d 9ebd 7461 08bd 8006 613d
000000f0: 1069 95bd 54a9 b6bd 7059 dabc dcf1 abbd
00000100: c08b a93d 30d7 74bd 083b 9f3c 9884 0d3d
00000110: aca2 2fbd 58ad 223d b22a c5bd 544d a13d
00000120: b2d1 e63d 383a babd 4015 53bb 2069 57bc
00000130: 0259 913d 64c2 80bd 28e8 85bc e81d df3d
00000140: 0632 b53d 6807 44bd 4e8d be3d 6a76 fb3d
00000150: 2028 933c 3814 9bbd 081d b03d 200c bd3b
00000160: 7824 543d a4e3 ae3d 38f7 efbc aaa3 aebd
00000170: a072 30bd 0c0a f8bd dc1b f4bd ec3c 40bd
00000180: 202a 72bd a0b4 bd3c 3cda 693d 6e24 813d
